checkpoints/expr_20230731_110254/PPO_DockingEnv_80031_00000_0_2023-07-31_11-03-07/converted_ckpt/ckpt_200_with_pre_post_processing.onnx (onnx, 274426 bytes, 8 tensors)

model/preprocess_norm_scale/MatMul/ReadVariableOp:0 f4 [4, 4]
0.01 0.0 0.0 0.0 0.0 0.0055555557 0.0 0.0
0.0 0.0 2.0 0.0 0.0 0.0 0.0 2.0
00000000: 0ad7 233c 0000 0000 0000 0000 0000 0000
00000010: 0000 0000 610b b63b 0000 0000 0000 0000
00000020: 0000 0000 0000 0000 0000 0040 0000 0000
00000030: 0000 0000 0000 0000 0000 0000 0000 0040

model/postprocess_filter_std_clip/MatMul/ReadVariableOp:0 f4 [4, 2]
1.0 0.0 0.0 0.0 0.0 1.0 0.0 0.0
00000000: 0000 803f 0000 0000 0000 0000 0000 0000
00000010: 0000 0000 0000 803f 0000 0000 0000 0000

model/model/fc_out/MatMul/ReadVariableOp:0 f4 [256, 4]
-0.00016036513 -0.0006269292 -0.00060413784 -0.00021144743 0.00037543845 -0.00011120943 -0.0010394792 -0.00046858398
0.0044413074 -0.0013793426 -0.012318943 -0.000888459 -0.0014724203 -0.0005422884 0.00044872303 0.0009442247
-0.0005531971 -0.0013738609 7.543688e-05 -0.0016009391 0.0011885207 -0.00018304132 0.0018310182 0.00030086644
0.0013497404 -0.000665477 0.01272014 -0.0012757974 0.0007857581 -0.00039225994 0.00051689125 0.000244804
-0.0013239528 -0.002051397 -0.0068784985 -0.0009458045 -0.00043496446 -0.00070157764 -0.00031307098 -0.00015698069
0.0013128566 -0.0008962448 -0.0006049726 -0.00044832187 0.010585213 -0.0018358856 -0.0093616415 -0.0012497235
0.004411658 0.0004561402 0.0050183213 -0.0020455238 -0.00837072 -0.0009786881 -0.006191736 -0.003618185
-0.0011775433 -0.0001988177 0.0003550457 -0.0002639983 0.008298592 -0.0018400983 -0.011247777 -0.0031934606
0.00229081 -0.00047560636 -0.0007144551 -0.0017276618 -0.0005966163 0.0010134396 0.0015445799 -0.00016355499
0.008303968 -0.001795077 -0.0048678913 -0.0011165233 -0.0007812322 -0.0004655471 9.078105e-05 -0.0005267173
0.0005701558 -0.0010697887 -0.0012048832 0.0006885658 0.005437961 -0.0012113146 -0.0014601748 -0.0018708099
-0.00054802943 -0.00097326486 -0.00054914237 -0.0015252194 -9.694032e-05 -0.0007689317 0.0005138858 -1.2211433e-05
9.736995e-05 0.0008645938 -0.000107681524 0.00034132393 0.0007540495 -0.00057328166 0.0003545168 0.0005172422
-0.00576285 -0.001990973 -0.0027446942 -0.0012512251 -0.0007295521 -0.0013632538 0.00029712278 0.00019946572
0.00051035744 0.0001532685 -0.0006043392 0.0001786303 0.0011864 -0.0013084322 -0.0026651248 -0.0022154367
0.00014005924 0.0003329843 0.00083438423 -5.4939293e-05 0.00024084628 -0.0014182109 0.0005495221 -0.00014760478
0.004197822 -0.0013971159 -0.004006135 -0.0016518984 0.0003587125 0.0007585282 -0.0006436117 -0.0013876606
-0.0059625967 -0.0025414408 -0.0125850905 -0.0012076612 -0.00027573554 -0.00036913625 -0.0043560094 0.00044609772
0.0007785941 0.00059621857 6.7238434e-05 0.0010570433 0.000116152354 -0.0010874979 0.0008302035 -0.00027005895
-0.007373627 -0.001438654 -0.004258613 -0.0009819577 -0.0002817775 0.00025817787 0.00032790643 -0.0014211464
0.0006858059 0.00015595868 -0.001174065 -0.00081393577 -0.0017946705 -0.001048609 -0.0003252911 0.00032785814
0.000897412 0.001065108 -0.00015495924 -0.00025721727 0.0064831027 -0.001071426 -0.007375637 0.0006638911
-0.0042129485 -0.001965201 -0.0028401832 -0.001769465 -0.0025611406 -0.001422598 0.0072635626 -0.0009569115
0.00017098131 -0.00034870039 -0.00080440985 -0.0011173155 0.0031718137 0.00047447218 -0.006127205 -0.0005563705
8.985849e-05 -0.0011199946 5.946389e-05 -0.0007389381 -2.301814e-05 0.00028567036 2.3131708e-05 -0.0013153387
-0.00013724838 -0.00014753157 0.00061572186 -0.00057641667 -0.00070633064 -0.00049991853 0.000954691 -0.00045055276
0.006683967 -0.0009086024 -0.0061211083 -0.0002585879 -0.0005448001 -0.00014719236 0.0004983421 8.360885e-05
3.0945677e-05 -0.00070953456 0.00027981744 -0.0004101705 0.0059747836 -0.00080545817 -0.010746467 -0.0001519498
-0.002490735 0.0007103676 0.0045475815 -0.0003896722 0.00044255474 -0.00048085718 0.001404995 -0.0011154177
0.0007120867 -0.0002074591 0.0022777969 -0.00071109354 -0.00020953496 0.00066523295 -0.00030106984 -0.00014558995
-0.0006985873 -2.333184e-05 -0.00153285 -0.0013739457 0.00020719711 -7.229434e-05 0.00029736536 2.9578867e-05
-0.00077688013 0.0004064059 0.00081255805 -0.0007526056 -0.0023547863 -0.0014917476 0.0163538 -0.0023157708
00000000: b027 28b9 8258 24ba 015f 1eba fdb7 5db9
00000010: 7fd6 c439 1c39 e9b8 223f 88ba 47ac f5b9
00000020: 6388 913b 0fcb b4ba 64d5 49bc 79e7 68ba
00000030: 3afe c0ba 5c28 0eba 9642 eb39 d985 773a
00000040: 6e04 11ba 1f13 b4ba de33 9e38 9ad6 d1ba
00000050: 23c8 9b3a c8ee 3fb9 c7fe ef3a 9cbd 9d39
00000060: c6e9 b03a 6873 2eba 2268 503c a838 a7ba
00000070: 55fb 4d3a 3da8 cdb9 fc7f 073a 0959 8039
00000080: 7c88 adba bb70 06bb 0765 e1bb deef 77ba
00000090: f10b e4b9 14ea 37ba ad23 a4b9 2f9b 24b9
000000a0: 2814 ac3a f8f1 6aba 0697 1eba be0c ebb9
000000b0: 9a6d 2d3c 19a2 f0ba 9261 19bc c3cd a3ba
000000c0: ab8f 903b 1a26 ef39 bb70 a43b 320e 06bb
000000d0: 5825 09bc 5347 80ba 0ce4 cabb 121f 6dbb
000000e0: cc57 9aba b879 50b9 6d25 ba39 4169 8ab9
000000f0: d1f6 073c 742f f1ba 9948 38bc 6149 51bb
00000100: 6a21 163b ce5a f9b9 454a 3bba b672 e2ba
00000110: 3e66 1cba 64d5 843a 8073 ca3a f57f 2bb9
00000120: 5e0d 083c ca48 ebba d582 9fbb 4e58 92ba
00000130: 9bcb 4cba ad14 f4b9 b561 be38 6613 0aba
00000140: 8276 153a 2738 8cba 2ced 9dba de80 343a
00000150: ec30 b23b f9c4 9eba 5663 bfba f735 f5ba
00000160: a2a9 0fba b322 7fba 52f4 0fba dfe9 c7ba
00000170: 704c cbb8 2292 49ba 4bb6 063a b5df 4cb7
00000180: 1833 cc38 e8a5 623a 14d3 e1b8 b9f3 b239
00000190: 68ab 453a 4848 16ba 70de b939 8997 073a
000001a0: 4ad6 bcbb fc7a 02bb 54e0 33bb 2600 a4ba
000001b0: 6a3f 3fba 35af b2ba 25c7 9b39 ac27 5139
000001c0: 82c9 053a b3b6 2039 846c 1eba b54e 3b39
000001d0: fa80 9b3a b37f abba 60a9 2ebb dc30 11bb
000001e0: dedc 1239 6594 ae39 94ba 5a3a 9e6e 66b8
000001f0: ae8b 7c39 43e3 b9ba ce0d 103a 5bc6 1ab9
00000200: e28d 893b 6e1f b7ba e545 83bb 8384 d8ba
00000210: 9411 bc39 f7d7 463a 0db8 28ba 2ae2 b5ba
00000220: e361 c3bb 4d8e 26bb b231 4ebc 634a 9eba
00000230: 9990 90b9 a188 c1b9 dbbc 8ebb 39e2 e939
00000240: 911a 4c3a 8d4b 1c3a 5c02 8d38 7d8c 8a3a
00000250: d296 f338 608a 8eba 04a2 593a b396 8db9
00000260: 779e f1bb 3891 bcba d68b 8bbb 08b5 80ba
00000270: 89bb 93b9 0c5c 8739 dbea ab39 c345 baba
00000280: a8c7 333a d788 2339 16e3 99ba 4e5e 55ba
00000290: 263b ebba 7b71 89ba d58b aab9 60e4 ab39
000002a0: 4d40 6b3a 189b 8b3a 8e7c 22b9 1edb 86b9
000002b0: 3570 d43b 176f 8cba 54af f1bb fa08 2e3a
000002c0: c60c 8abb 9aca 00bb 5e22 3abb 65ed e7ba
000002d0: cfd8 27bb 7876 baba 2e03 ee3b 3ed9 7aba
000002e0: 7249 3339 c6d1 b6b9 08df 52ba e372 92ba
000002f0: 34de 4f3b 94c2 f839 b9c6 c8bb 64d9 11ba
00000300: 6972 bc38 c8cc 92ba de68 7938 4cb5 41ba
00000310: 1417 c1b7 07c6 9539 f70a c237 7167 acba
00000320: 55ea 0fb9 b4b2 1ab9 6568 213a ab1a 17ba
00000330: 0c29 39ba f70c 03ba 3a44 7a3a 2b38 ecb9
00000340: 2e05 db3b 462f 6eba 9493 c8bb 1593 87b9
00000350: ead0 0eba a657 1ab9 2ca3 023a 2957 af38
00000360: abcb 0138 0f00 3aba 76b4 9239 270c d7b9
00000370: 1ec8 c33b 6225 53ba f311 30bc b754 1fb9
00000380: 993b 23bb f637 3a3a e103 953b eb4c ccb9
00000390: b106 e839 8f1b fcb9 cf27 b83a 3533 92ba
000003a0: 54ab 3a3a 6189 59b9 1747 153b ae68 3aba
000003b0: 9db6 5bb9 0763 2e3a e9d8 9db9 81a9 18b9
000003c0: 6621 37ba bfb8 c3b7 e9e9 c8ba f815 b4ba
000003d0: 0d43 5939 ba9c 97b8 b4e7 9b39 2220 f837
000003e0: 8ba7 4bba e012 d539 d901 553a 824a 45ba
000003f0: c252 1abb be86 c3ba 68f8 853c 30c4 17bb

model/model/fc_out/BiasAdd/ReadVariableOp:0 f4 [4]
0.00035175105 -0.0029336214 -0.0030731175 -0.0026285197
00000000: 3a6b b839 0042 40bb 5b66 49bb 3e43 2cbb

model/model/fc_2/MatMul/ReadVariableOp:0 f4 [256, 256]
0.106872745 -0.050875798 -0.0578076 -0.070507854 0.07274781 -0.03445593 -0.045544807 0.00816519
-0.010421238 -0.0415866 0.04274637 0.068877116 0.06526811 0.05309132 0.025156582 -0.10361099
0.10694429 0.018904543 0.041732214 0.069879904 0.0836956 0.030700065 0.026465293 -0.037566025
0.0016057114 -0.052116502 -0.038910888 -0.05381659 -0.010264827 0.06530512 0.19938098 0.011596172
-0.079438485 0.07644355 -0.011272276 -0.04306626 0.013072029 -0.080583245 0.015981354 -0.005240162
0.006136869 0.024408132 0.0039958884 0.007922229 0.019851144 0.025617061 -0.061662026 -0.08256019
-0.0037851413 -0.088652775 0.005453483 0.058546666 0.038088374 -0.06723085 -0.053996686 0.028529055
-0.02771926 -0.020441849 0.03973295 -0.06515882 -0.024732558 -0.05016161 -0.066839725 -0.0468294
0.047791008 0.0034979694 -0.052989796 -0.010841219 -0.09825912 -0.034558237 0.1310447 -0.002549838
0.043232247 -0.0016330029 0.020761868 0.04854914 -0.061232824 0.0035317938 0.10515011 -0.05106066
-0.037299097 -0.018014852 0.016885346 0.03408474 0.08080996 0.028703727 -0.0037851252 0.08352639
0.04344109 -0.098586544 0.15687384 0.119879276 -0.011144652 0.028565904 0.090170644 -0.010162625
0.05052786 0.07062808 -0.066803075 -0.04105184 0.056086812 0.027374739 0.061044242 -0.00910828
-0.017842822 -0.122224115 -0.06591708 0.0064019756 0.055552702 0.033290233 -0.008732617 -0.014067473
0.019425489 0.007743346 0.084390506 0.010666352 -0.091051005 -0.07845679 0.09571678 -0.067506
0.05366948 -0.016990595 -0.0053014876 -0.00900279 0.083702736 -0.008340398 -0.0016203463 -0.09450219
0.0129065 0.032398883 0.015899781 0.093840145 0.01262534 0.024725951 0.10800622 -0.09380799
-0.028650092 0.09103853 0.057742424 0.042150613 0.052416198 0.020639796 0.10145961 0.023986256
0.019171841 0.012510979 0.011942029 -0.067059875 0.050734736 -0.008561435 0.11196922 -0.005105495
0.023645306 0.01631546 -0.037851 0.064576104 0.114886716 0.0018074149 -0.011654188 -0.021569941
-0.124132715 -0.011689067 0.019804938 0.066629 0.060913764 -0.02685199 -0.013935829 0.07226518
-0.0112787625 -0.030667478 0.08752922 0.06620557 0.0021599785 -0.02976944 -0.11489571 0.039948203
-0.05858598 -0.12989017 0.102814384 0.04244586 -0.06700267 -0.07721312 0.061707377 -0.05385776
0.08559462 0.04271659 0.03549102 0.024307884 0.013236604 0.05576992 -0.03014884 0.011320521
0.053449534 0.03366037 -0.07801041 -0.029760681 0.016524652 -0.026307195 0.11430605 -0.023563838
-0.009467823 0.051996566 0.021944737 -0.008777888 -0.04540919 0.019473648 0.06461164 0.032716565
-0.051876005 0.10975087 -0.08999601 -0.09368487 0.058380716 0.019493045 -0.037723985 -0.066822216
0.14538671 0.008747807 0.03101495 0.020809758 0.02876415 0.038542375 0.051194783 -0.023747107
-0.013465271 -0.10247819 -0.044797685 0.018135794 0.063781835 0.03749701 -0.016794445 -0.07474973
-0.16327834 0.070004664 -0.03628224 -0.030783629 0.0114918165 -0.08228127 -0.016090998 0.12783585
0.032650802 0.027138885 -0.09103074 0.13544887 -0.085923485 0.122953735 -0.12909468 0.08948664
0.110244825 -0.057909843 0.027353903 0.03481 -0.049638126 -0.079916194 -0.079416044 0.038630974
00000000: 19e0 da3d 2463 50bd a9c7 6cbd 6c66 90bd
00000010: cefc 943d a921 0dbd 318d 3abd 4ac7 053c
00000020: d7bd 2abc b656 2abd d116 2f3d 720f 8d3d
00000030: 49ab 853d 4976 593d 2d15 ce3c 0032 d4bd
00000040: 9c05 db3d b3dd 9a3c 66ef 2a3d 321d 8f3d
00000050: 9968 ab3d b47e fb3c becd d83c d5de 19bd
00000060: bc76 d23a 1d78 55bd 0661 1fbd c96e 5cbd
00000070: ce2d 28bc b1be 853d 872a 4c3e dffd 3d3c
00000080: a5b0 a2bd 708e 9c3d 5aaf 38bc 3f66 30bd
00000090: 102c 563c d408 a5bd 54eb 823c aab5 abbb
000000a0: ca17 c93b 90f3 c73c f1ef 823b 3dcc 013c
000000b0: de9e a23c dfda d13c 5291 7cbd 5115 a9bd
000000c0: 2210 78bb 968f b5bd 22b3 b23b a1ce 6f3d
000000d0: 8e02 1c3d 54b0 89bd a12b 5dbd c4b5 e93c
000000e0: 8013 e3bc aa75 a7bc 05bf 223d fd71 85bd
000000f0: ef9b cabc 4376 4dbd 44e3 88bd 2fd0 3fbd
00000100: 81c0 433d 303e 653b d40b 59bd 5e9f 31bc
00000110: 143c c9bd f08c 0dbd 9530 063e 2f1b 27bb
00000120: 4c14 313d 7c0a d6ba cb14 aa3c 77db 463d
00000130: 45cf 7abd ab75 673b f158 d73d fc24 51bd
00000140: f0c6 18bd e293 93bc 2353 8a3c 719c 0b3d
00000150: b17f a53d 1424 eb3c dd0f 78bb e20f ab3d
00000160: 49ef 313d bee7 c9bd 89a3 203e 4483 f53d
00000170: 0f98 36bc 0b03 ea3c 63ab b83d 2481 26bc
00000180: 4df6 4e3d 74a5 903d 0dd0 88bd f925 28bd
00000190: 49bb 653d fd40 e03c 8709 7a3d e53a 15bc
000001a0: 1c2b 92bc a350 fabd 89ff 86bd aac7 d13b
000001b0: 3b8b 633d 575b 083d 4013 0fbc 427b 66bc
000001c0: 3422 9f3c e5bb fd3b eed4 ac3d ecc1 2e3c
000001d0: f378 babd f4ad a0bd 2907 c43d 9640 8abd
000001e0: 87d4 5b3d dc2f 8bbc 1ab8 adbb 7080 13bc
000001f0: 576c ab3d 2aa6 08bc cd61 d4ba 5d8a c1bd
00000200: c975 533c b1b4 043d 4240 823c 432f c03d
00000210: 84da 4e3c 148e ca3c 5d32 dd3d 671e c0bd
00000220: 99b3 eabc 6972 ba3d 5283 6c3d 1fa6 2c3d
00000230: 5eb2 563d ca14 a93c 0eca cf3d d37e c43c
00000240: 440e 9d3c d9fa 4c3c 80a8 433c b056 89bd
00000250: 3acf 4f3d 4345 0cbc 1e50 e53d ff4b a7bb
00000260: cdb3 c13c 00a8 853c a609 1bbd 7a40 843d
00000270: ba49 eb3d c8e6 ec3a 35f1 3ebc 72b3 b0bc
00000280: 4b39 febd 8083 3fbc f73d a23c c974 883d
00000290: b680 793d b4f8 dbbc 1a53 64bc c4ff 933d
000002a0: 8fca 38bc 5d3a fbbc 8542 b33d c996 873d
000002b0: 6d8e 0d3b 0adf f3bc 714e ebbd baa0 233d
000002c0: daf7 6fbd ee01 05be 5990 d23d b6db 2d3d
000002d0: b238 89bd ea21 9ebd e0c0 7c3d f499 5cbd
000002e0: 3b4c af3d 97f7 2e3d 085f 113d 5421 c73c
000002f0: 57de 583c 006f 643d b3fa f6bc b579 393c
00000300: e6ed 5a3d 75df 093d ecc3 9fbd accc f3bc
00000310: b55e 873c 3082 d7bc 4a19 ea3d f308 c1bc
00000320: ee1e 1bbc 5afa 543d 73c5 b33c 21d1 0fbc
00000330: fdfe 39bd 3387 9f3c 1c53 843d ce01 063d
00000340: ef7b 54bd 10c5 e03d d44f b8bd dadd bfbd
00000350: 9e20 6f3d e1af 9f3c 7784 1abd 16da 88bd
00000360: 41e0 143e f652 0f3c 1013 fe3c 3a79 aa3c
00000370: cba2 eb3c 9cde 1d3d 9fb1 513d 4b89 c2bc
00000380: 719d 5cbc 16e0 d1bd c77d 37bd 8491 943c
00000390: 0da0 823d 7796 193d 8194 89bc 6316 99bd
000003a0: 7032 27be 9b5e 8f3d b09c 14bd f32d fcbc
000003b0: 2c48 3c3c 1583 a8bd 45d1 83bc 67e7 023e
000003c0: d9bc 053d 5e52 de3c 536e babd 1cb3 0a3e
000003d0: a7f8 afbd 2bcf fb3d 6531 04be c644 b73d
000003e0: 0ac8 e13d df32 6dbd 4b15 e03c ee94 0e3d
000003f0: 5951 4bbd 1aab a3bd e1a4 a2bd 833b 1e3d

model/model/fc_2/BiasAdd/ReadVariableOp:0 f4 [256]
0.002170842 0.0063437037 0.0112641305 -0.0016062628 0.0030280254 -0.00064968993 0.0066540698 -0.0010953222
0.009242707 -0.00028286275 0.0030284373 0.010400127 0.0037826335 0.007346178 -0.00022905541 0.007053602
0.00539406 -0.0024638397 0.01024123 0.0012925515 9.7001815e-05 0.0059014433 0.0041180984 -0.0005415242
-0.0040746997 -0.0010143262 0.004845905 0.00034449625 0.0013626128 0.0053408067 -0.0035482594 0.00027586674
0.0031403215 0.0015462235 0.011728887 0.004121591 7.562305e-05 0.0007880899 0.0078000496 0.000692656
0.0031334746 0.0009432273 -0.0003933286 0.008012053 0.0040861764 0.0055859713 -0.0005453628 0.0061016465
0.0023462211 0.0013162314 -0.0016309781 -0.0001933332 0.008036806 -0.00045717042 0.0018080192 0.010961537
0.002887313 0.0006391946 0.0029887124 -0.0024267922 0.0037530842 -0.0023111945 -0.0014190718 0.014245671
0.008113834 0.0027918671 -0.0010897631 0.009400256 0.007034859 0.013144824 0.0041085253 0.0066189514
0.0033994934 0.00974851 0.0025284 0.007770714 0.007535319 0.006133499 0.0025508127 -0.0016259894
-0.003754538 -0.0010317485 0.0 0.008032854 0.0022890554 -0.0023270324 -0.0003058249 0.002258766
-0.003328047 0.0025468261 0.004881119 0.00077806687 0.0007934849 0.0075201965 0.011448081 -6.656585e-05
0.0048355055 -0.0019020975 0.0016529136 0.00018201592 0.0008282988 -0.0021955513 0.008101638 -0.00048180512
0.001726621 0.008956484 0.012553836 0.009726802 0.006770236 0.0018988582 -1.0021604e-05 0.00563082
0.010569629 0.0070690815 -0.00017484034 0.0012222636 0.00088078465 0.0047310977 0.010516805 0.005541713
0.008939022 0.0010267489 0.011605988 0.0009015343 0.0036727248 0.008665856 0.00020862337 -0.0042003375
-0.00057306787 0.0 -2.6123244e-05 0.0016285462 0.013255273 0.009546166 0.006963775 0.0062968256
0.009041392 0.0018516076 2.0680123e-05 0.0014127304 0.006381243 0.0043514525 -0.0039172396 0.001488189
0.0048728213 0.0048614163 0.0022265865 0.002188673 -0.0011461754 0.0038686758 0.00030733246 -0.0021240916
-0.0017122903 0.0028410228 0.0016590605 2.2593751e-05 0.0105838375 0.0051111705 0.0077709267 0.0024093955
-0.0003231171 -0.003267936 0.0014878982 0.0025084747 3.2813747e-05 0.004731806 0.004408824 -0.0006475484
0.0017247804 -0.0031191162 0.0022234756 -0.0020602248 0.001111983 0.007995174 0.008669802 0.009005808
0.0029490562 0.0038937149 9.812719e-05 0.000610834 -0.0020998742 0.0048371027 0.011598211 -0.0011775799
0.00084694335 0.004178271 0.004770879 0.0032390014 0.0046635196 0.00085892197 0.0 0.008990993
0.005572655 0.0008171601 9.5180454e-05 0.0043807793 0.00024399799 0.003808403 -0.0014394957 -0.001906335
0.008258552 0.003274691 0.0018118039 0.0024530836 0.0010058082 0.0021170082 0.003871413 0.008957631
0.00028409724 0.004120618 0.0080277305 -0.0001861409 8.5698244e-05 0.008413441 0.0019996075 0.007703012
0.0028477372 0.009012106 -0.00080725574 0.0003614065 0.0005645647 0.003374644 0.000711314 0.0018900608
0.004254554 0.005548449 0.0076176333 -0.003087695 0.0011489639 0.0025856527 0.008962527 0.0090941265
0.0044164406 0.00082063826 0.0033295883 -0.0007056151 0.006390597 0.012260477 0.007436751 -0.0007132775
0.0030786218 0.0075010182 0.00017038148 0.008935401 0.0059385095 0.0014684926 0.0068582734 0.0088247415
0.004256894 0.006672145 0.00061163446 0.0015167028 0.002303475 0.008182527 0.0035492228 0.010340807
00000000: af44 0e3b d8de cf3b 308d 383c 3c89 d2ba
00000010: d671 463b f44f 2aba 620a da3b ea90 8fba
00000020: b96e 173c 324d 94b9 bf78 463b 4b65 2a3c
00000030: 0fe6 773b 35b8 f03b 982e 70b9 e721 e73b
00000040: a8c0 b03b 5f78 21bb d5ca 273c d56a a93a
00000050: 746d cb38 e560 c13b 1df1 863b 13f5 0dba
00000060: 0f85 85bb 24f3 84ba 66ca 9e3b 819d b439
00000070: b399 b23a ef01 af3b ea89 68bb 35a2 9039
00000080: dacd 4d3b a7aa ca3a 852a 403c 690e 873b
00000090: d197 9e38 d197 4e3a 8f97 ff3b 5b93 353a
000000a0: fb5a 4d3b ea42 773a ac37 ceb9 fc44 033c
000000b0: 55e5 853b 860a b73b aef6 0eba 52f0 c73b
000000c0: 0fc3 193b 6685 ac3a 8bc6 d5ba 7cb9 4ab9
000000d0: cfac 033c 60b0 efb9 0ffb ec3a 0598 333c
000000e0: 1339 3d3b a08f 273a 46de 433b d10a 1fbb
000000f0: 4ef6 753b 6977 17bb 2600 baba ad66 693c
00000100: e3ef 043c c2f7 363b 62d6 8eba 8803 1a3c
00000110: ad84 e63b 635d 573c cfa0 863b cae3 d83b
00000120: 09ca 5e3b 37b8 1f3c 83b3 253b 79a1 fe3b
00000130: d6ea f63b 85fb c83b 892b 273b 271f d5ba
00000140: b20e 76bb bc3b 87ba 0000 0000 3b9c 033c
00000150: fa03 163b 2081 18bb 2057 a0b9 ce07 143b
00000160: 5d1b 5abb a7e8 263b cbf1 9f3b 2ff7 4b3a
00000170: df01 503a fb6b f63b bb90 3b3c 4599 8bb8
00000180: 2973 9e3b cd4f f9ba 94a6 d83a 87db 3e39
00000190: 3122 593a 3de3 0fbb bcbc 043c ca9a fcb9
000001a0: c94f e23a 37be 123c 9bae 4d3c 2a5d 1f3c
000001b0: dbd8 dd3b 1ce3 f83a 7622 28b7 be82 b83b
000001c0: 3d2c 2d3c c1a3 e73b 5955 37b9 5c34 a03a
000001d0: 75e4 663a 5307 9b3b ad4e 2c3c 4297 b53b
000001e0: fa74 123c fa93 863a 0b27 3e3c f154 6c3a
000001f0: 19b2 703b 3cfb 0d3c e9c1 5a39 fca2 89bb
00000200: ef39 16ba 0000 0000 3d23 dbb7 f174 d53a
00000210: a52c 593c 8667 1c3c 6130 e43b 9a55 ce3b
00000220: 5922 143c a4b1 f23a 3a7a ad37 5e2b b93a
00000230: bf19 d13b a196 8e3b 305c 80bb 560f c33a
00000240: 30ac 9f3b 844c 9f3b eceb 113b d76f 0f3b
00000250: 443b 96ba 9c89 7d3b 7721 a139 5834 0bbb
00000260: ee6e e0ba 7430 3a3b d574 d93a b687 bd37
00000270: d567 2d3c 9b7b a73b 42a3 fe3b f3e6 1d3b
00000280: 0b68 a9b9 de2a 56bb 9405 c33a 3965 243b
00000290: 7ea1 0938 440d 9b3b e577 903b 3dc0 29ba
000002a0: 0712 e23a 166a 4cbb bbb7 113b d604 07bb
000002b0: f5bf 913a 31fe 023c c90b 0e3c 198d 133c
000002c0: f444 413b b22d 7f3b a2c9 cd38 6020 203a
000002d0: 0b9e 09bb 8f80 9e3b 6c06 3e3c 0659 9aba
000002e0: 6805 5e3a e1e9 883b 0955 9c3b 6d45 543b
000002f0: 70d0 983b 4729 613a 0000 0000 f54e 133c
00000300: d19a b63b b036 563a 9e9b c738 a48c 8f3b
00000310: b6d9 7f39 6696 793b 76ad bcba fddd f9ba
00000320: e14e 073c 339c 563b 0d7a ed3a eac3 203b
00000330: 53d5 833a 81bd 0a3b 88b7 7d3b 07c3 123c
00000340: e3f2 9439 4006 873b be86 033c d12e 43b9
00000350: e5b8 b338 87d8 093c d90b 033b 8c69 fc3b
00000360: 1aa1 3a3b 83a7 133c 049e 53ba 297b bd39
00000370: 4cff 133a 2229 5d3b 7977 3a3a ebbb f73a
00000380: c969 8b3b c3cf b53b 579d f93b ed5a 4abb
00000390: d598 963a 0e74 293b 90d7 123c 88ff 143c
000003a0: cab7 903b 1a20 573a 3935 5a3b 07f9 38ba
000003b0: 3768 d13b 2be0 483c fdaf f33b 3efb 3aba
000003c0: b4c2 493b 1acb f53b 6ea8 3239 ca65 123c
000003d0: d497 c23b 6f7a c03a 5ebb e03b a695 103c
000003e0: 6a7d 8b3b 02a2 da3b 1856 203a 1acc c63a
000003f0: e6f5 163b 0110 063c 149a 683b 7d6c 293c

model/model/fc_1/MatMul/ReadVariableOp:0 f4 [4, 256]
0.593668 0.16390918 0.4813786 0.9620076 0.7627632 -0.629731 0.7826522 -0.056956332
-0.040452454 0.3848121 0.060912255 0.8516045 0.44314286 0.11662883 0.35095754 0.109916225
0.43331257 -0.20029214 0.13021813 -0.77316886 -0.80568564 0.97859603 0.32501632 -0.31323108
0.92358494 -0.64646727 0.053871162 -0.09773597 0.9730331 0.6476015 0.13360375 0.16966386
-0.47102877 -0.7739411 -0.25022686 0.059387103 0.40821385 0.6790257 -0.58139104 -0.26074016
-0.4698428 -0.90997964 -0.877132 0.79362345 -0.17474434 -0.2236672 -0.65811646 0.35977355
-0.5791657 -0.12118111 -0.474787 0.17090477 -0.43504015 -0.9776523 -0.01916308 0.29849878
0.054875884 0.3012138 -0.67878807 -0.12453133 -0.429963 -0.3423145 -0.7683675 -0.8535629
0.16204779 -0.26975664 -0.98435956 0.2654989 -0.35589865 0.0649258 0.50612354 0.05390426
0.77536076 -0.73737144 0.30803195 -0.26489848 -0.66157424 -0.17321989 -0.106725566 0.06563553
-0.50663435 0.60862285 0.17357329 -0.6029376 0.7744804 0.79608387 0.6055003 -0.12046298
-0.4204693 0.8522034 -0.3212914 0.9738882 0.108585216 0.81001925 0.41921997 0.3061369
0.007951344 0.81166214 0.06786236 0.26942167 0.62096006 -0.7120088 -0.73798585 0.7058344
-0.8338352 0.89992183 -0.22849081 -0.36765647 0.9380754 0.8406566 0.98705775 0.4378453
-0.5061732 0.7045176 -0.61814094 0.3792372 0.6403692 -0.1658153 0.4666603 0.78466225
0.4098306 -0.5244371 0.34318122 0.7764288 -0.30195618 -0.29573962 -0.13960876 0.5756751
0.61469376 0.15019694 -0.24883595 0.28407064 -0.26213065 0.046061978 -0.44726065 0.91303253
0.46417874 -0.07172662 0.51315165 -0.3733218 -0.7461232 0.23360555 0.102937214 0.35024312
0.89443004 0.33296987 -0.523825 0.6243946 -0.5413731 -0.31760707 -0.0652563 0.9938628
-0.47251043 -0.4515719 -0.04985137 -0.43338358 0.48528185 -0.40600395 -0.51834947 -0.21078429
-0.2404312 0.7431228 0.39433086 0.057526775 -0.6646624 0.42320308 -0.3711825 -0.8542536
0.7113979 0.15540333 0.53804207 0.11666641 0.6722531 -0.20404194 -0.40728724 0.19154897
-0.6732281 -0.2650784 -0.39648318 0.01058178 -0.19479147 -0.6147139 -0.44008505 -0.8924712
0.38538182 -0.7341259 -0.8839516 0.04864629 -0.36249387 0.7265856 -0.45052996 0.13738926
-0.025578272 -0.4539636 0.3409602 -0.14512093 0.47357967 0.9168557 0.94049704 0.45092648
-0.32136565 -0.100699574 0.5925964 0.55791813 0.5462817 -0.67353714 -0.010511968 -0.7474799
0.34809673 -0.038553987 0.6773406 0.3139252 0.26904553 -0.43926618 -0.3753659 -0.2363083
-0.0056488137 0.3491669 0.7728489 -0.028340515 -0.43287313 -0.23457016 -0.16397855 0.20426537
-0.77907944 0.037730888 0.1615289 0.1977343 -0.36094496 -0.082152255 -0.48682743 -0.5986454
-0.49589306 0.36181784 -0.72475284 0.69536257 0.571762 -0.83968115 0.14788795 0.26521453
-0.6158122 -0.2035338 -0.10132741 -0.15739657 -0.36538622 -0.6916256 0.6483816 0.5091603
-0.7993262 -0.6400758 0.27813572 -0.34126824 0.082153276 -0.17056693 0.5717688 0.3676724
00000000: a0fa 173f cfd7 273e 4177 f63e 2146 763f
00000010: 7344 433f 0d36 21bf e55b 483f 0b4b 69bd
00000020: 79b1 25bd 1706 c53e 217f 793d c102 5a3f
00000030: 9fe3 e23e 19db ee3d b5b0 b33e c21b e13d
00000040: 25db dd3e 6219 4dbe e757 053e 65ee 45bf
00000050: 6a41 4ebf 4585 7a3f 8a68 a63e d35f a0be
00000060: 1070 6c3f e17e 25bf 02a8 5c3d cc29 c8bd
00000070: b218 793f 36c9 253f 6ccf 083e 5dbc 2d3e
00000080: af2a f1be 0121 46bf bc1d 80be e43f 733d
00000090: 6801 d13e a1d4 2d3f 0bd6 14bf bc7f 85be
000000a0: 3c8f f0be 6df4 68bf b98b 60bf e82a 4b3f
000000b0: 2ef0 32be 0409 65be 527a 28bf 3d34 b83e
000000c0: 3444 14bf cd2d f8bd 4817 f3be a901 2f3e
000000d0: 95bd debe 6c47 7abf e4fb 9cbc d5d4 983e
000000e0: 89c5 603d b238 9a3e 0ec5 2dbf 480a ffbd
000000f0: 1c24 dcbe d943 afbe bcb3 44bf 1983 5abf
00000100: dbef 253e 8b1d 8abe fdfe 7bbf 79ef 873e
00000110: 5938 b6be d1f7 843d 5091 013f b7ca 5c3d
00000120: 0b7e 463f 60c4 3cbf 5db6 9d3e c6a0 87be
00000130: ee5c 29bf 8e60 31be ef92 dabd ec6b 863d
00000140: cab2 01bf b5ce 1b3f 32bd 313e 1e5a 1abf
00000150: 5944 463f 27cc 4b3f 1102 1b3f 4bb5 f6bd
00000160: c147 d7be 012a 5a3f 4e80 a4be bd50 793f
00000170: ed61 de3d 6c5d 4f3f 00a4 d63e fabd 9c3e
00000180: 5b46 023c 17c9 4f3f 6cfb 8a3d a3f1 893e
00000190: 3df7 1e3f 3546 36bf a4ec 3cbf 90b1 343f
000001a0: 3976 55bf 4761 663f 7ff9 69be 783d bcbe
000001b0: b625 703f 4535 573f d1af 7c3f 422d e03e
000001c0: 9194 01bf 445b 343f 7c3e 1ebf 612b c23e
000001d0: 3cef 233f 7ccb 29be 19ee ee3e a0df 483f
000001e0: 51d5 d13e 8341 06bf 73b5 af3e 0ac4 463f
000001f0: 009a 9abe 2f6b 97be 99f5 0ebe 715f 133f
00000200: 925c 1d3f 3acd 193e dace 7ebe b571 913e
00000210: fd35 86be 7cab 3c3d 59ff e4be 80bc 693f
00000220: d6a8 ed3e 68e5 92bd e85d 033f 0924 bfbe
00000230: ee01 3fbf 4b36 6f3e bfd0 d23d 1153 b33e
00000240: 5ef9 643f 077b aa3e 6519 06bf 53d8 1f3f
00000250: 6d97 0abf 659d a2be 18a5 85bd cb6d 7e3f
00000260: e3ec f1be 6f34 e7be f330 4cbd 74e4 ddbe
00000270: dd76 f83e c0df cfbe 8db2 04bf d6d7 57be
00000280: 9933 76be 4c3d 3e3f bce5 c93e 32a1 6b3d
00000290: 5127 2abf 13ae d83e a20b bebe 5db0 5abf
000002a0: 2c1e 363f 0d22 1f3e 20bd 093f ccee ee3d
000002b0: c718 2c3f 5ff0 50be f487 d0be 6a25 443e
000002c0: ad58 2cbf 5bb8 87be d8ff cabe 345f 2d3c
000002d0: 6a77 47be e45d 1dbf d452 e1be fe78 64bf
000002e0: c450 c53e adef 3bbf a74a 62bf 5541 473d
000002f0: cc98 b9be 8401 3a3f ddab e6be c5af 0c3e
00000300: 8689 d1bc eb6d e8be 5692 ae3e 959a 14be
00000310: 0979 f23e 0eb7 6a3f 6ac4 703f d6df e63e
00000320: 0a8a a4be 943b cebd 66b4 173f b9d3 0e3f
00000330: 1ed9 0b3f ee6c 2cbf 643a 2cbc d85a 3fbf
00000340: bc39 b23e c9ea 1dbd 3266 2d3f ceba a03e
00000350: 56c0 893e 7fe7 e0be f62f c0be cefa 71be
00000360: af19 b9bb 01c6 b23e 6dd9 453f 5e2a e8bc
00000370: 8ca1 ddbe 2933 70be fee9 27be f12a 513e
00000380: c071 47bf b48b 1a3d d567 253e dc7a 4a3e
00000390: c7cd b8be 713f a8bd 7241 f9be d340 19bf
000003a0: b2e5 fdbe 3040 b93e 6789 39bf 4803 323f
000003b0: ff5e 123f 58f5 56bf f06f 173e 33ca 873e
000003c0: dea5 1dbf 2a6b 50be bf84 cfbd 912c 21be
000003d0: e713 bbbe 600e 31bf 56fc 253f 5458 023f
000003e0: a4a0 4cbf 02dc 23bf ce67 8e3e b6ba aebe
000003f0: fa3f a83d 19a9 2ebe 715f 123f 8f3f bc3e

model/model/fc_1/BiasAdd/ReadVariableOp:0 f4 [256]
0.0017528862 0.0052424506 0.0057937107 -0.0035950188 -0.003077865 0.0073731993 -0.003338351 0.0030308987
0.012982152 0.0039175493 0.0061123716 0.005890351 0.0016677504 0.0012627298 0.009784045 0.01669577
0.0063212914 0.009131559 0.0055025257 -0.0010386641 -0.0029086669 0.0042039044 0.0034740504 0.011248122
-0.004900732 0.010235043 0.016036034 0.007705814 0.00074685167 0.0030595674 0.0067164702 -0.011839787
0.008406878 0.0073612374 0.018053414 0.003942183 0.0053688535 -0.0009116594 -0.00018442469 -0.004474307
0.006961501 -0.0010799004 -0.0037867043 0.0031153415 -0.007031318 0.014622502 0.00089813746 -0.007879576
0.008067077 -0.0025760836 0.014021896 0.0055924165 0.015681982 0.00013919896 0.012106078 0.008588774
0.0059160045 0.0055133468 0.0036243724 0.005884132 0.010546168 0.0071914685 0.0005711852 -0.0039442945
0.0044398434 0.012048341 -0.0019927642 0.005572617 -0.0038911463 -0.0025603035 0.007823763 0.006690023
0.0027052595 0.0041363165 0.009702965 0.0026232244 0.009899065 0.0034295334 0.005354684 0.0059419307
0.011980345 -0.00094236684 0.005289506 -0.004924617 0.004792726 0.008348849 0.0019601788 0.016968317
0.0019026103 -0.006793391 0.009037803 -0.0009512398 0.0032710016 -0.0019702534 0.0046208487 0.0008705442
0.0073970254 -0.0032350528 -0.002883942 0.0009468852 -0.0028847118 -0.0011500046 -0.009651219 0.0030424192
0.0012070234 -0.009704752 0.0044549815 0.0017717506 0.0017913226 -0.004618081 -0.008947685 0.004640718
0.015487125 0.0017040467 0.00044075085 -0.0064278366 -0.00075394975 -0.0007966918 -0.0020184547 0.012352859
0.00890552 -0.0039892653 0.0028024015 -0.0054960335 0.009482817 -0.0055503417 0.014644532 -0.0017662885
-0.000522165 -0.00073423836 0.007656814 0.0015063157 -0.004306054 0.005550278 0.010133383 -0.0027481415
-0.0018707713 0.00047591332 0.0037415181 -0.000934327 0.0004986446 0.0005228667 0.009085405 0.0064378483
-0.002851528 0.007179555 -0.002420546 0.004556409 0.007980631 0.010888472 0.0060057747 -0.004614987
0.0009375382 0.0012355937 0.0067034517 0.00529197 -0.006114054 0.008092606 0.009271453 0.007372491
-0.0011117496 -0.0030006163 0.001817161 0.01771579 0.005670067 0.0033377334 -0.0056886505 0.00092212466
0.0042252634 0.0074336682 0.0057448098 0.0104699135 -0.0043402174 -0.0054391515 0.013207676 -0.0032642432
0.0037604105 0.00901153 -0.0015815523 0.0060745575 -0.00066089537 -0.0036520434 -0.008791829 0.0004553527
-0.0079229055 0.004085449 0.0050134286 0.004294637 0.005425985 -0.0035957103 0.00950634 0.004100279
0.020161102 -0.0044193543 -0.0028633445 0.0051440676 0.0017345288 -0.00793742 -0.0066911886 0.0035010525
0.004679647 0.002218361 6.4120715e-05 0.0035871023 0.0018024123 0.00425248 0.003730931 -0.00052904844
-0.0002648241 -0.00014031587 -0.0020149555 0.0060615665 0.0045874817 0.006272944 0.011446298 -0.004806607
0.007955066 0.0040182034 -0.0028558492 0.00627314 0.003971793 0.0042870226 0.0020592168 0.00092193246
-0.0025085397 0.0017222173 0.005437 0.0015089537 0.015291119 -0.0025688326 -0.004485076 -0.00789245
0.0008791871 0.005488238 -0.0059254235 0.0021462697 -0.0010471338 -0.002455066 0.0065094945 0.0044373367
0.0083659915 0.012391131 -0.007472555 0.001994139 -0.0020729613 0.007567667 -0.0037558074 0.0030888512
-0.0005316127 -0.008270082 -0.0020425608 0.0023485976 -0.0008443929 0.0007273625 0.006055064 0.006030351
00000000: 1ac1 e53a ddc8 ab3b 2bd9 bd3b 689a 6bbb
00000010: 02b6 49bb e19a f13b 3cc8 5abb 0ba2 463b
00000020: 18b3 543c c95e 803b 4a4a c83b d803 c13b
00000030: 6b98 da3a 2e82 a53a 424d 203c 91c5 883c
00000040: d622 cf3b 899c 153c 884e b43b c923 88ba
00000050: 559f 3ebb e8c0 893b e5ac 633b 0b4a 383c
00000060: 5296 a0bb e2b0 273c 005e 833c 0e81 fc3b
00000070: 5ec8 433a 0683 483b d615 dc3b aafb 41bc
00000080: 01bd 093c 8936 f13b c1e4 933c 6e2d 813b
00000090: 35ed af3b 6dfc 6eba 2062 41b9 359d 92bb
000000a0: 4e1d e43b 728b 8dba 5b2a 78bb c22a 4c3b
000000b0: f866 e6bb 3893 6f3c fc70 6b3a 5619 01bc
000000c0: c62b 043c 83d3 28bb 18bc 653c 9740 b73b
000000d0: 8077 803c f0f5 1139 9258 463c eeb7 0c3c
000000e0: 0bdb c13b 4ea9 b43b e186 6d3b adcf c03b
000000f0: d6c9 2c3c 69a6 eb3b 97bb 153a 243f 81bb
00000100: 1b7c 913b 6866 453c 0999 02bb 809a b63b
00000110: 9a02 7fbb c4ca 27bb 3e2f 003c fb37 db3b
00000120: b94a 313b f089 873b 2ff9 1e3c 67ea 2b3b
00000130: b02f 223c 06c2 603b 5876 af3b 87b4 c23b
00000140: 3549 443c 2b09 77ba 9853 ad3b ae5e a1bb
00000150: 4d0c 9d3b 9cc9 083c 5876 003b 2401 8b3c
00000160: 0261 f93a 189b debb 4b13 143c 9f5c 79ba
00000170: 4d5e 563b 5e1f 01bb 7d6a 973b 3b35 643a
00000180: bf62 f23b 2e03 54bb 8500 3dbb 6438 783a
00000190: 6f0d 3dbb c0bb 96ba 2520 1ebc 5363 473b
000001a0: fc34 9e3a ae00 1fbc 18fb 913b 163a e83a
000001b0: d0ca ea3a 4553 97bb 5099 12bc 2a11 983b
000001c0: b6bd 7d3c 525a df3a 9414 e739 9aa0 d2bb
000001d0: b6a4 45ba 15d9 50ba 0d48 04bb a563 4a3c
000001e0: 75e8 113c 62b8 82bb 7fa8 373b 1218 b4bb
000001f0: d15d 1b3c a4df b5bb 9fef 6f3c cf82 e7ba
00000200: e6e1 08ba e779 40ba 03e6 fa3b 916f c53a
00000210: cd19 8dbb 1bdf b53b 7d06 263c 2a1a 34bb
00000220: ab34 f5ba 0184 f939 4234 753b a0ed 74ba
00000230: 79b7 023a fe10 093a f3da 143c 96f4 d23b
00000240: b4e0 3abb 7942 eb3b 06a2 1ebb ee4d 953b
00000250: 31c1 023c 9065 323c 17cc c43b 5139 97bb
00000260: 20c5 753a a5f3 a13a a1a8 db3b 4368 ad3b
00000270: 6758 c8bb da96 043c 4be7 173c f094 f13b
00000280: 20b8 91ba fda5 44bb ce2d ee3a b420 913c
00000290: f8cb b93b e0bd 5a3b dc67 babb bdba 713a
000002a0: 1474 8a3b 2196 f33b f53e bc3b 008a 2b3c
000002b0: 6238 8ebb e93a b2bb 0265 583c eaec 55bb
000002c0: 3871 763b 19a5 133c 174c cfba 150d c73b
000002d0: f03f 2dba 1f57 6fbb 9b0b 10bc 68bc ee39
000002e0: 13cf 01bc 3bdf 853b b047 a43b 07ba 8c3b
000002f0: 76cc b13b 02a6 6bbb 7bc0 1b3c a25b 863b
00000300: e528 a53c 3bd0 90bb f3a6 3bbb 918f a83b
00000310: 2159 e33a f40b 02bc c241 dbbb ea71 653b
00000320: b957 993b ec61 113b 8c78 8638 9715 6b3b
00000330: ec3e ec3a 6358 8b3b a382 743b d7af 0aba
00000340: 17d8 8ab9 c121 13b9 580d 04bb 1ba0 c63b
00000350: 9652 963b 458d cd3b 4189 3b3c be80 9dbb
00000360: f755 023c 22ab 833b 3329 3bbb ea8e cd3b
00000370: d125 823b 277a 8c3b edf3 063b d7ad 713a
00000380: 5066 24bb 06bc e13a dd28 b23b 16c8 c53a
00000390: 9a87 7a3c dc59 28bb 8bf7 92bb 564f 01bc
000003a0: 3f79 663a add6 b33b 0e2a c2bb 6ea8 0c3b
000003b0: fb3f 89ba 2ce5 20bb 994d d53b 1467 913b
000003c0: 8311 093c 2c04 4b3c 56dc f4bb 1ab0 023b
000003d0: 85da 07bb 31fa f73b fe23 76bb 536e 4a3b
000003e0: ed5b 0bba 3d7f 07bc 7cdc 05bb eeea 193b
000003f0: 405a 5dba 79ac 3e3a 8f69 c63b 409a c53b
